<?xml version="1.0" encoding="UTF-8"?>
<net name="mobilenet_v1_1.0_224" version="3" batch="1">
	<layers>
		<layer name="input" type="Input" precision="FP32" id="0">
			<output>
				<port id="0">
					<dim>1</dim>
					<dim>3</dim>
					<dim>224</dim>
					<dim>224</dim>
				</port>
			</output>
		</layer>
		<layer name="Mul1_/Fused_Mul_/FusedScaleShift_" type="ScaleShift" precision="FP32" id="1">
			<data broadcast="0"/>
			<input>
				<port id="0">
					<dim>1</dim>
					<dim>3</dim>
					<dim>224</dim>
					<dim>224</dim>
				</port>
			</input>
			<output>
				<port id="1">
					<dim>1</dim>
					<dim>3</dim>
					<dim>224</dim>
					<dim>224</dim>
				</port>
			</output>
			<blobs>
				<biases offset="0" size="12"/>
				<weights offset="12" size="12"/>
			</blobs>
		</layer>
		<layer name="MobilenetV1/MobilenetV1/Conv2d_0/Conv2D" type="Convolution" precision="FP32" id="2">
			<data auto_pad="same_upper" dilations="1,1" group="1" kernel="3,3" output="32" pads_begin="0,0" pads_end="1,1" quantization_level="I8" strides="2,2"/>
			<input>
				<port id="0">
					<dim>1</dim>
					<dim>3</dim>
					<dim>224</dim>
					<dim>224</dim>
				</port>
			</input>
			<output>
				<port id="1">
					<dim>1</dim>
					<dim>32</dim>
					<dim>112</dim>
					<dim>112</dim>
				</port>
			</output>
			<blobs>
				<biases offset="24" size="128"/>
				<weights offset="152" size="3456"/>
			</blobs>
		</layer>
		<layer name="MobilenetV1/MobilenetV1/Conv2d_0/Relu6" type="Clamp" precision="FP32" id="3">
			<data max="6.000000" min="0.000000"/>
			<input>
				<port id="0">
					<dim>1</dim>
					<dim>32</dim>
					<dim>112</dim>
					<dim>112</dim>
				</port>
			</input>
			<output>
				<port id="1">
					<dim>1</dim>
					<dim>32</dim>
					<dim>112</dim>
					<dim>112</dim>
				</port>
			</output>
		</layer>
		<layer name="MobilenetV1/MobilenetV1/Conv2d_1_depthwise/depthwise" type="Convolution" precision="FP32" id="4">
			<data auto_pad="same_upper" dilations="1,1" group="32" kernel="3,3" output="32" pads_begin="1,1" pads_end="1,1" quantization_level="I8" strides="1,1"/>
			<input>
				<port id="0">
					<dim>1</dim>
					<dim>32</dim>
					<dim>112</dim>
					<dim>112</dim>
				</port>
			</input>
			<output>
				<port id="1">
					<dim>1</dim>
					<dim>32</dim>
					<dim>112</dim>
					<dim>112</dim>
				</port>
			</output>
			<blobs>
				<biases offset="3608" size="128"/>
				<weights offset="3736" size="1152"/>
			</blobs>
		</layer>
		<layer name="MobilenetV1/MobilenetV1/Conv2d_1_depthwise/Relu6" type="Clamp" precision="FP32" id="5">
			<data max="6.000000" min="0.000000"/>
			<input>
				<port id="0">
					<dim>1</dim>
					<dim>32</dim>
					<dim>112</dim>
					<dim>112</dim>
				</port>
			</input>
			<output>
				<port id="1">
					<dim>1</dim>
					<dim>32</dim>
					<dim>112</dim>
					<dim>112</dim>
				</port>
			</output>
		</layer>
		<layer name="MobilenetV1/MobilenetV1/Conv2d_1_pointwise/Conv2D" type="Convolution" precision="FP32" id="6">
			<data auto_pad="same_upper" dilations="1,1" group="1" kernel="1,1" output="64" pads_begin="0,0" pads_end="0,0" quantization_level="I8" strides="1,1"/>
			<input>
				<port id="0">
					<dim>1</dim>
					<dim>32</dim>
					<dim>112</dim>
					<dim>112</dim>
				</port>
			</input>
			<output>
				<port id="1">
					<dim>1</dim>
					<dim>64</dim>
					<dim>112</dim>
					<dim>112</dim>
				</port>
			</output>
			<blobs>
				<biases offset="4888" size="256"/>
				<weights offset="5144" size="8192"/>
			</blobs>
		</layer>
		<layer name="MobilenetV1/MobilenetV1/Conv2d_1_pointwise/Relu6" type="Clamp" precision="FP32" id="7">
			<data max="6.000000" min="0.000000"/>
			<input>
				<port id="0">
					<dim>1</dim>
					<dim>64</dim>
					<dim>112</dim>
					<dim>112</dim>
				</port>
			</input>
			<output>
				<port id="1">
					<dim>1</dim>
					<dim>64</dim>
					<dim>112</dim>
					<dim>112</dim>
				</port>
			</output>
		</layer>
		<layer name="MobilenetV1/MobilenetV1/Conv2d_2_depthwise/depthwise" type="Convolution" precision="FP32" id="8">
			<data auto_pad="same_upper" dilations="1,1" group="64" kernel="3,3" output="64" pads_begin="0,0" pads_end="1,1" quantization_level="I8" strides="2,2"/>
			<input>
				<port id="0">
					<dim>1</dim>
					<dim>64</dim>
					<dim>112</dim>
					<dim>112</dim>
				</port>
			</input>
			<output>
				<port id="1">
					<dim>1</dim>
					<dim>64</dim>
					<dim>56</dim>
					<dim>56</dim>
				</port>
			</output>
			<blobs>
				<biases offset="13336" size="256"/>
				<weights offset="13592" size="2304"/>
			</blobs>
		</layer>
		<layer name="MobilenetV1/MobilenetV1/Conv2d_2_depthwise/Relu6" type="Clamp" precision="FP32" id="9">
			<data max="6.000000" min="0.000000"/>
			<input>
				<port id="0">
					<dim>1</dim>
					<dim>64</dim>
					<dim>56</dim>
					<dim>56</dim>
				</port>
			</input>
			<output>
				<port id="1">
					<dim>1</dim>
					<dim>64</dim>
					<dim>56</dim>
					<dim>56</dim>
				</port>
			</output>
		</layer>
		<layer name="MobilenetV1/MobilenetV1/Conv2d_2_pointwise/Conv2D" type="Convolution" precision="FP32" id="10">
			<data auto_pad="same_upper" dilations="1,1" group="1" kernel="1,1" output="128" pads_begin="0,0" pads_end="0,0" quantization_level="I8" strides="1,1"/>
			<input>
				<port id="0">
					<dim>1</dim>
					<dim>64</dim>
					<dim>56</dim>
					<dim>56</dim>
				</port>
			</input>
			<output>
				<port id="1">
					<dim>1</dim>
					<dim>128</dim>
					<dim>56</dim>
					<dim>56</dim>
				</port>
			</output>
			<blobs>
				<biases offset="15896" size="512"/>
				<weights offset="16408" size="32768"/>
			</blobs>
		</layer>
		<layer name="MobilenetV1/MobilenetV1/Conv2d_2_pointwise/Relu6" type="Clamp" precision="FP32" id="11">
			<data max="6.000000" min="0.000000"/>
			<input>
				<port id="0">
					<dim>1</dim>
					<dim>128</dim>
					<dim>56</dim>
					<dim>56</dim>
				</port>
			</input>
			<output>
				<port id="1">
					<dim>1</dim>
					<dim>128</dim>
					<dim>56</dim>
					<dim>56</dim>
				</port>
			</output>
		</layer>
		<layer name="MobilenetV1/MobilenetV1/Conv2d_3_depthwise/depthwise" type="Convolution" precision="FP32" id="12">
			<data auto_pad="same_upper" dilations="1,1" group="128" kernel="3,3" output="128" pads_begin="1,1" pads_end="1,1" quantization_level="I8" strides="1,1"/>
			<input>
				<port id="0">
					<dim>1</dim>
					<dim>128</dim>
					<dim>56</dim>
					<dim>56</dim>
				</port>
			</input>
			<output>
				<port id="1">
					<dim>1</dim>
					<dim>128</dim>
					<dim>56</dim>
					<dim>56</dim>
				</port>
			</output>
			<blobs>
				<biases offset="49176" size="512"/>
				<weights offset="49688" size="4608"/>
			</blobs>
		</layer>
		<layer name="MobilenetV1/MobilenetV1/Conv2d_3_depthwise/Relu6" type="Clamp" precision="FP32" id="13">
			<data max="6.000000" min="0.000000"/>
			<input>
				<port id="0">
					<dim>1</dim>
					<dim>128</dim>
					<dim>56</dim>
					<dim>56</dim>
				</port>
			</input>
			<output>
				<port id="1">
					<dim>1</dim>
					<dim>128</dim>
					<dim>56</dim>
					<dim>56</dim>
				</port>
			</output>
		</layer>
		<layer name="MobilenetV1/MobilenetV1/Conv2d_3_pointwise/Conv2D" type="Convolution" precision="FP32" id="14">
			<data auto_pad="same_upper" dilations="1,1" group="1" kernel="1,1" output="128" pads_begin="0,0" pads_end="0,0" quantization_level="I8" strides="1,1"/>
			<input>
				<port id="0">
					<dim>1</dim>
					<dim>128</dim>
					<dim>56</dim>
					<dim>56</dim>
				</port>
			</input>
			<output>
				<port id="1">
					<dim>1</dim>
					<dim>128</dim>
					<dim>56</dim>
					<dim>56</dim>
				</port>
			</output>
			<blobs>
				<biases offset="54296" size="512"/>
				<weights offset="54808" size="65536"/>
			</blobs>
		</layer>
		<layer name="MobilenetV1/MobilenetV1/Conv2d_3_pointwise/Relu6" type="Clamp" precision="FP32" id="15">
			<data max="6.000000" min="0.000000"/>
			<input>
				<port id="0">
					<dim>1</dim>
					<dim>128</dim>
					<dim>56</dim>
					<dim>56</dim>
				</port>
			</input>
			<output>
				<port id="1">
					<dim>1</dim>
					<dim>128</dim>
					<dim>56</dim>
					<dim>56</dim>
				</port>
			</output>
		</layer>
		<layer name="MobilenetV1/MobilenetV1/Conv2d_4_depthwise/depthwise" type="Convolution" precision="FP32" id="16">
			<data auto_pad="same_upper" dilations="1,1" group="128" kernel="3,3" output="128" pads_begin="0,0" pads_end="1,1" quantization_level="I8" strides="2,2"/>
			<input>
				<port id="0">
					<dim>1</dim>
					<dim>128</dim>
					<dim>56</dim>
					<dim>56</dim>
				</port>
			</input>
			<output>
				<port id="1">
					<dim>1</dim>
					<dim>128</dim>
					<dim>28</dim>
					<dim>28</dim>
				</port>
			</output>
			<blobs>
				<biases offset="120344" size="512"/>
				<weights offset="120856" size="4608"/>
			</blobs>
		</layer>
		<layer name="MobilenetV1/MobilenetV1/Conv2d_4_depthwise/Relu6" type="Clamp" precision="FP32" id="17">
			<data max="6.000000" min="0.000000"/>
			<input>
				<port id="0">
					<dim>1</dim>
					<dim>128</dim>
					<dim>28</dim>
					<dim>28</dim>
				</port>
			</input>
			<output>
				<port id="1">
					<dim>1</dim>
					<dim>128</dim>
					<dim>28</dim>
					<dim>28</dim>
				</port>
			</output>
		</layer>
		<layer name="MobilenetV1/MobilenetV1/Conv2d_4_pointwise/Conv2D" type="Convolution" precision="FP32" id="18">
			<data auto_pad="same_upper" dilations="1,1" group="1" kernel="1,1" output="256" pads_begin="0,0" pads_end="0,0" quantization_level="I8" strides="1,1"/>
			<input>
				<port id="0">
					<dim>1</dim>
					<dim>128</dim>
					<dim>28</dim>
					<dim>28</dim>
				</port>
			</input>
			<output>
				<port id="1">
					<dim>1</dim>
					<dim>256</dim>
					<dim>28</dim>
					<dim>28</dim>
				</port>
			</output>
			<blobs>
				<biases offset="125464" size="1024"/>
				<weights offset="126488" size="131072"/>
			</blobs>
		</layer>
		<layer name="MobilenetV1/MobilenetV1/Conv2d_4_pointwise/Relu6" type="Clamp" precision="FP32" id="19">
			<data max="6.000000" min="0.000000"/>
			<input>
				<port id="0">
					<dim>1</dim>
					<dim>256</dim>
					<dim>28</dim>
					<dim>28</dim>
				</port>
			</input>
			<output>
				<port id="1">
					<dim>1</dim>
					<dim>256</dim>
					<dim>28</dim>
					<dim>28</dim>
				</port>
			</output>
		</layer>
		<layer name="MobilenetV1/MobilenetV1/Conv2d_5_depthwise/depthwise" type="Convolution" precision="FP32" id="20">
			<data auto_pad="same_upper" dilations="1,1" group="256" kernel="3,3" output="256" pads_begin="1,1" pads_end="1,1" quantization_level="I8" strides="1,1"/>
			<input>
				<port id="0">
					<dim>1</dim>
					<dim>256</dim>
					<dim>28</dim>
					<dim>28</dim>
				</port>
			</input>
			<output>
				<port id="1">
					<dim>1</dim>
					<dim>256</dim>
					<dim>28</dim>
					<dim>28</dim>
				</port>
			</output>
			<blobs>
				<biases offset="257560" size="1024"/>
				<weights offset="258584" size="9216"/>
			</blobs>
		</layer>
		<layer name="MobilenetV1/MobilenetV1/Conv2d_5_depthwise/Relu6" type="Clamp" precision="FP32" id="21">
			<data max="6.000000" min="0.000000"/>
			<input>
				<port id="0">
					<dim>1</dim>
					<dim>256</dim>
					<dim>28</dim>
					<dim>28</dim>
				</port>
			</input>
			<output>
				<port id="1">
					<dim>1</dim>
					<dim>256</dim>
					<dim>28</dim>
					<dim>28</dim>
				</port>
			</output>
		</layer>
		<layer name="MobilenetV1/MobilenetV1/Conv2d_5_pointwise/Conv2D" type="Convolution" precision="FP32" id="22">
			<data auto_pad="same_upper" dilations="1,1" group="1" kernel="1,1" output="256" pads_begin="0,0" pads_end="0,0" quantization_level="I8" strides="1,1"/>
			<input>
				<port id="0">
					<dim>1</dim>
					<dim>256</dim>
					<dim>28</dim>
					<dim>28</dim>
				</port>
			</input>
			<output>
				<port id="1">
					<dim>1</dim>
					<dim>256</dim>
					<dim>28</dim>
					<dim>28</dim>
				</port>
			</output>
			<blobs>
				<biases offset="267800" size="1024"/>
				<weights offset="268824" size="262144"/>
			</blobs>
		</layer>
		<layer name="MobilenetV1/MobilenetV1/Conv2d_5_pointwise/Relu6" type="Clamp" precision="FP32" id="23">
			<data max="6.000000" min="0.000000"/>
			<input>
				<port id="0">
					<dim>1</dim>
					<dim>256</dim>
					<dim>28</dim>
					<dim>28</dim>
				</port>
			</input>
			<output>
				<port id="1">
					<dim>1</dim>
					<dim>256</dim>
					<dim>28</dim>
					<dim>28</dim>
				</port>
			</output>
		</layer>
		<layer name="MobilenetV1/MobilenetV1/Conv2d_6_depthwise/depthwise" type="Convolution" precision="FP32" id="24">
			<data auto_pad="same_upper" dilations="1,1" group="256" kernel="3,3" output="256" pads_begin="0,0" pads_end="1,1" quantization_level="I8" strides="2,2"/>
			<input>
				<port id="0">
					<dim>1</dim>
					<dim>256</dim>
					<dim>28</dim>
					<dim>28</dim>
				</port>
			</input>
			<output>
				<port id="1">
					<dim>1</dim>
					<dim>256</dim>
					<dim>14</dim>
					<dim>14</dim>
				</port>
			</output>
			<blobs>
				<biases offset="530968" size="1024"/>
				<weights offset="531992" size="9216"/>
			</blobs>
		</layer>
		<layer name="MobilenetV1/MobilenetV1/Conv2d_6_depthwise/Relu6" type="Clamp" precision="FP32" id="25">
			<data max="6.000000" min="0.000000"/>
			<input>
				<port id="0">
					<dim>1</dim>
					<dim>256</dim>
					<dim>14</dim>
					<dim>14</dim>
				</port>
			</input>
			<output>
				<port id="1">
					<dim>1</dim>
					<dim>256</dim>
					<dim>14</dim>
					<dim>14</dim>
				</port>
			</output>
		</layer>
		<layer name="MobilenetV1/MobilenetV1/Conv2d_6_pointwise/Conv2D" type="Convolution" precision="FP32" id="26">
			<data auto_pad="same_upper" dilations="1,1" group="1" kernel="1,1" output="512" pads_begin="0,0" pads_end="0,0" quantization_level="I8" strides="1,1"/>
			<input>
				<port id="0">
					<dim>1</dim>
					<dim>256</dim>
					<dim>14</dim>
					<dim>14</dim>
				</port>
			</input>
			<output>
				<port id="1">
					<dim>1</dim>
					<dim>512</dim>
					<dim>14</dim>
					<dim>14</dim>
				</port>
			</output>
			<blobs>
				<biases offset="541208" size="2048"/>
				<weights offset="543256" size="524288"/>
			</blobs>
		</layer>
		<layer name="MobilenetV1/MobilenetV1/Conv2d_6_pointwise/Relu6" type="Clamp" precision="FP32" id="27">
			<data max="6.000000" min="0.000000"/>
			<input>
				<port id="0">
					<dim>1</dim>
					<dim>512</dim>
					<dim>14</dim>
					<dim>14</dim>
				</port>
			</input>
			<output>
				<port id="1">
					<dim>1</dim>
					<dim>512</dim>
					<dim>14</dim>
					<dim>14</dim>
				</port>
			</output>
		</layer>
		<layer name="MobilenetV1/MobilenetV1/Conv2d_7_depthwise/depthwise" type="Convolution" precision="FP32" id="28">
			<data auto_pad="same_upper" dilations="1,1" group="512" kernel="3,3" output="512" pads_begin="1,1" pads_end="1,1" quantization_level="I8" strides="1,1"/>
			<input>
				<port id="0">
					<dim>1</dim>
					<dim>512</dim>
					<dim>14</dim>
					<dim>14</dim>
				</port>
			</input>
			<output>
				<port id="1">
					<dim>1</dim>
					<dim>512</dim>
					<dim>14</dim>
					<dim>14</dim>
				</port>
			</output>
			<blobs>
				<biases offset="1067544" size="2048"/>
				<weights offset="1069592" size="18432"/>
			</blobs>
		</layer>
		<layer name="MobilenetV1/MobilenetV1/Conv2d_7_depthwise/Relu6" type="Clamp" precision="FP32" id="29">
			<data max="6.000000" min="0.000000"/>
			<input>
				<port id="0">
					<dim>1</dim>
					<dim>512</dim>
					<dim>14</dim>
					<dim>14</dim>
				</port>
			</input>
			<output>
				<port id="1">
					<dim>1</dim>
					<dim>512</dim>
					<dim>14</dim>
					<dim>14</dim>
				</port>
			</output>
		</layer>
		<layer name="MobilenetV1/MobilenetV1/Conv2d_7_pointwise/Conv2D" type="Convolution" precision="FP32" id="30">
			<data auto_pad="same_upper" dilations="1,1" group="1" kernel="1,1" output="512" pads_begin="0,0" pads_end="0,0" quantization_level="I8" strides="1,1"/>
			<input>
				<port id="0">
					<dim>1</dim>
					<dim>512</dim>
					<dim>14</dim>
					<dim>14</dim>
				</port>
			</input>
			<output>
				<port id="1">
					<dim>1</dim>
					<dim>512</dim>
					<dim>14</dim>
					<dim>14</dim>
				</port>
			</output>
			<blobs>
				<biases offset="1088024" size="2048"/>
				<weights offset="1090072" size="1048576"/>
			</blobs>
		</layer>
		<layer name="MobilenetV1/MobilenetV1/Conv2d_7_pointwise/Relu6" type="Clamp" precision="FP32" id="31">
			<data max="6.000000" min="0.000000"/>
			<input>
				<port id="0">
					<dim>1</dim>
					<dim>512</dim>
					<dim>14</dim>
					<dim>14</dim>
				</port>
			</input>
			<output>
				<port id="1">
					<dim>1</dim>
					<dim>512</dim>
					<dim>14</dim>
					<dim>14</dim>
				</port>
			</output>
		</layer>
		<layer name="MobilenetV1/MobilenetV1/Conv2d_8_depthwise/depthwise" type="Convolution" precision="FP32" id="32">
			<data auto_pad="same_upper" dilations="1,1" group="512" kernel="3,3" output="512" pads_begin="1,1" pads_end="1,1" quantization_level="I8" strides="1,1"/>
			<input>
				<port id="0">
					<dim>1</dim>
					<dim>512</dim>
					<dim>14</dim>
					<dim>14</dim>
				</port>
			</input>
			<output>
				<port id="1">
					<dim>1</dim>
					<dim>512</dim>
					<dim>14</dim>
					<dim>14</dim>
				</port>
			</output>
			<blobs>
				<biases offset="2138648" size="2048"/>
				<weights offset="2140696" size="18432"/>
			</blobs>
		</layer>
		<layer name="MobilenetV1/MobilenetV1/Conv2d_8_depthwise/Relu6" type="Clamp" precision="FP32" id="33">
			<data max="6.000000" min="0.000000"/>
			<input>
				<port id="0">
					<dim>1</dim>
					<dim>512</dim>
					<dim>14</dim>
					<dim>14</dim>
				</port>
			</input>
			<output>
				<port id="1">
					<dim>1</dim>
					<dim>512</dim>
					<dim>14</dim>
					<dim>14</dim>
				</port>
			</output>
		</layer>
		<layer name="MobilenetV1/MobilenetV1/Conv2d_8_pointwise/Conv2D" type="Convolution" precision="FP32" id="34">
			<data auto_pad="same_upper" dilations="1,1" group="1" kernel="1,1" output="512" pads_begin="0,0" pads_end="0,0" quantization_level="I8" strides="1,1"/>
			<input>
				<port id="0">
					<dim>1</dim>
					<dim>512</dim>
					<dim>14</dim>
					<dim>14</dim>
				</port>
			</input>
			<output>
				<port id="1">
					<dim>1</dim>
					<dim>512</dim>
					<dim>14</dim>
					<dim>14</dim>
				</port>
			</output>
			<blobs>
				<biases offset="2159128" size="2048"/>
				<weights offset="2161176" size="1048576"/>
			</blobs>
		</layer>
		<layer name="MobilenetV1/MobilenetV1/Conv2d_8_pointwise/Relu6" type="Clamp" precision="FP32" id="35">
			<data max="6.000000" min="0.000000"/>
			<input>
				<port id="0">
					<dim>1</dim>
					<dim>512</dim>
					<dim>14</dim>
					<dim>14</dim>
				</port>
			</input>
			<output>
				<port id="1">
					<dim>1</dim>
					<dim>512</dim>
					<dim>14</dim>
					<dim>14</dim>
				</port>
			</output>
		</layer>
		<layer name="MobilenetV1/MobilenetV1/Conv2d_9_depthwise/depthwise" type="Convolution" precision="FP32" id="36">
			<data auto_pad="same_upper" dilations="1,1" group="512" kernel="3,3" output="512" pads_begin="1,1" pads_end="1,1" quantization_level="I8" strides="1,1"/>
			<input>
				<port id="0">
					<dim>1</dim>
					<dim>512</dim>
					<dim>14</dim>
					<dim>14</dim>
				</port>
			</input>
			<output>
				<port id="1">
					<dim>1</dim>
					<dim>512</dim>
					<dim>14</dim>
					<dim>14</dim>
				</port>
			</output>
			<blobs>
				<biases offset="3209752" size="2048"/>
				<weights offset="3211800" size="18432"/>
			</blobs>
		</layer>
		<layer name="MobilenetV1/MobilenetV1/Conv2d_9_depthwise/Relu6" type="Clamp" precision="FP32" id="37">
			<data max="6.000000" min="0.000000"/>
			<input>
				<port id="0">
					<dim>1</dim>
					<dim>512</dim>
					<dim>14</dim>
					<dim>14</dim>
				</port>
			</input>
			<output>
				<port id="1">
					<dim>1</dim>
					<dim>512</dim>
					<dim>14</dim>
					<dim>14</dim>
				</port>
			</output>
		</layer>
		<layer name="MobilenetV1/MobilenetV1/Conv2d_9_pointwise/Conv2D" type="Convolution" precision="FP32" id="38">
			<data auto_pad="same_upper" dilations="1,1" group="1" kernel="1,1" output="512" pads_begin="0,0" pads_end="0,0" quantization_level="I8" strides="1,1"/>
			<input>
				<port id="0">
					<dim>1</dim>
					<dim>512</dim>
					<dim>14</dim>
					<dim>14</dim>
				</port>
			</input>
			<output>
				<port id="1">
					<dim>1</dim>
					<dim>512</dim>
					<dim>14</dim>
					<dim>14</dim>
				</port>
			</output>
			<blobs>
				<biases offset="3230232" size="2048"/>
				<weights offset="3232280" size="1048576"/>
			</blobs>
		</layer>
		<layer name="MobilenetV1/MobilenetV1/Conv2d_9_pointwise/Relu6" type="Clamp" precision="FP32" id="39">
			<data max="6.000000" min="0.000000"/>
			<input>
				<port id="0">
					<dim>1</dim>
					<dim>512</dim>
					<dim>14</dim>
					<dim>14</dim>
				</port>
			</input>
			<output>
				<port id="1">
					<dim>1</dim>
					<dim>512</dim>
					<dim>14</dim>
					<dim>14</dim>
				</port>
			</output>
		</layer>
		<layer name="MobilenetV1/MobilenetV1/Conv2d_10_depthwise/depthwise" type="Convolution" precision="FP32" id="40">
			<data auto_pad="same_upper" dilations="1,1" group="512" kernel="3,3" output="512" pads_begin="1,1" pads_end="1,1" quantization_level="I8" strides="1,1"/>
			<input>
				<port id="0">
					<dim>1</dim>
					<dim>512</dim>
					<dim>14</dim>
					<dim>14</dim>
				</port>
			</input>
			<output>
				<port id="1">
					<dim>1</dim>
					<dim>512</dim>
					<dim>14</dim>
					<dim>14</dim>
				</port>
			</output>
			<blobs>
				<biases offset="4280856" size="2048"/>
				<weights offset="4282904" size="18432"/>
			</blobs>
		</layer>
		<layer name="MobilenetV1/MobilenetV1/Conv2d_10_depthwise/Relu6" type="Clamp" precision="FP32" id="41">
			<data max="6.000000" min="0.000000"/>
			<input>
				<port id="0">
					<dim>1</dim>
					<dim>512</dim>
					<dim>14</dim>
					<dim>14</dim>
				</port>
			</input>
			<output>
				<port id="1">
					<dim>1</dim>
					<dim>512</dim>
					<dim>14</dim>
					<dim>14</dim>
				</port>
			</output>
		</layer>
		<layer name="MobilenetV1/MobilenetV1/Conv2d_10_pointwise/Conv2D" type="Convolution" precision="FP32" id="42">
			<data auto_pad="same_upper" dilations="1,1" group="1" kernel="1,1" output="512" pads_begin="0,0" pads_end="0,0" quantization_level="I8" strides="1,1"/>
			<input>
				<port id="0">
					<dim>1</dim>
					<dim>512</dim>
					<dim>14</dim>
					<dim>14</dim>
				</port>
			</input>
			<output>
				<port id="1">
					<dim>1</dim>
					<dim>512</dim>
					<dim>14</dim>
					<dim>14</dim>
				</port>
			</output>
			<blobs>
				<biases offset="4301336" size="2048"/>
				<weights offset="4303384" size="1048576"/>
			</blobs>
		</layer>
		<layer name="MobilenetV1/MobilenetV1/Conv2d_10_pointwise/Relu6" type="Clamp" precision="FP32" id="43">
			<data max="6.000000" min="0.000000"/>
			<input>
				<port id="0">
					<dim>1</dim>
					<dim>512</dim>
					<dim>14</dim>
					<dim>14</dim>
				</port>
			</input>
			<output>
				<port id="1">
					<dim>1</dim>
					<dim>512</dim>
					<dim>14</dim>
					<dim>14</dim>
				</port>
			</output>
		</layer>
		<layer name="MobilenetV1/MobilenetV1/Conv2d_11_depthwise/depthwise" type="Convolution" precision="FP32" id="44">
			<data auto_pad="same_upper" dilations="1,1" group="512" kernel="3,3" output="512" pads_begin="1,1" pads_end="1,1" quantization_level="I8" strides="1,1"/>
			<input>
				<port id="0">
					<dim>1</dim>
					<dim>512</dim>
					<dim>14</dim>
					<dim>14</dim>
				</port>
			</input>
			<output>
				<port id="1">
					<dim>1</dim>
					<dim>512</dim>
					<dim>14</dim>
					<dim>14</dim>
				</port>
			</output>
			<blobs>
				<biases offset="5351960" size="2048"/>
				<weights offset="5354008" size="18432"/>
			</blobs>
		</layer>
		<layer name="MobilenetV1/MobilenetV1/Conv2d_11_depthwise/Relu6" type="Clamp" precision="FP32" id="45">
			<data max="6.000000" min="0.000000"/>
			<input>
				<port id="0">
					<dim>1</dim>
					<dim>512</dim>
					<dim>14</dim>
					<dim>14</dim>
				</port>
			</input>
			<output>
				<port id="1">
					<dim>1</dim>
					<dim>512</dim>
					<dim>14</dim>
					<dim>14</dim>
				</port>
			</output>
		</layer>
		<layer name="MobilenetV1/MobilenetV1/Conv2d_11_pointwise/Conv2D" type="Convolution" precision="FP32" id="46">
			<data auto_pad="same_upper" dilations="1,1" group="1" kernel="1,1" output="512" pads_begin="0,0" pads_end="0,0" quantization_level="I8" strides="1,1"/>
			<input>
				<port id="0">
					<dim>1</dim>
					<dim>512</dim>
					<dim>14</dim>
					<dim>14</dim>
				</port>
			</input>
			<output>
				<port id="1">
					<dim>1</dim>
					<dim>512</dim>
					<dim>14</dim>
					<dim>14</dim>
				</port>
			</output>
			<blobs>
				<biases offset="5372440" size="2048"/>
				<weights offset="5374488" size="1048576"/>
			</blobs>
		</layer>
		<layer name="MobilenetV1/MobilenetV1/Conv2d_11_pointwise/Relu6" type="Clamp" precision="FP32" id="47">
			<data max="6.000000" min="0.000000"/>
			<input>
				<port id="0">
					<dim>1</dim>
					<dim>512</dim>
					<dim>14</dim>
					<dim>14</dim>
				</port>
			</input>
			<output>
				<port id="1">
					<dim>1</dim>
					<dim>512</dim>
					<dim>14</dim>
					<dim>14</dim>
				</port>
			</output>
		</layer>
		<layer name="MobilenetV1/MobilenetV1/Conv2d_12_depthwise/depthwise" type="Convolution" precision="FP32" id="48">
			<data auto_pad="same_upper" dilations="1,1" group="512" kernel="3,3" output="512" pads_begin="0,0" pads_end="1,1" quantization_level="I8" strides="2,2"/>
			<input>
				<port id="0">
					<dim>1</dim>
					<dim>512</dim>
					<dim>14</dim>
					<dim>14</dim>
				</port>
			</input>
			<output>
				<port id="1">
					<dim>1</dim>
					<dim>512</dim>
					<dim>7</dim>
					<dim>7</dim>
				</port>
			</output>
			<blobs>
				<biases offset="6423064" size="2048"/>
				<weights offset="6425112" size="18432"/>
			</blobs>
		</layer>
		<layer name="MobilenetV1/MobilenetV1/Conv2d_12_depthwise/Relu6" type="Clamp" precision="FP32" id="49">
			<data max="6.000000" min="0.000000"/>
			<input>
				<port id="0">
					<dim>1</dim>
					<dim>512</dim>
					<dim>7</dim>
					<dim>7</dim>
				</port>
			</input>
			<output>
				<port id="1">
					<dim>1</dim>
					<dim>512</dim>
					<dim>7</dim>
					<dim>7</dim>
				</port>
			</output>
		</layer>
		<layer name="MobilenetV1/MobilenetV1/Conv2d_12_pointwise/Conv2D" type="Convolution" precision="FP32" id="50">
			<data auto_pad="same_upper" dilations="1,1" group="1" kernel="1,1" output="1024" pads_begin="0,0" pads_end="0,0" quantization_level="I8" strides="1,1"/>
			<input>
				<port id="0">
					<dim>1</dim>
					<dim>512</dim>
					<dim>7</dim>
					<dim>7</dim>
				</port>
			</input>
			<output>
				<port id="1">
					<dim>1</dim>
					<dim>1024</dim>
					<dim>7</dim>
					<dim>7</dim>
				</port>
			</output>
			<blobs>
				<biases offset="6443544" size="4096"/>
				<weights offset="6447640" size="2097152"/>
			</blobs>
		</layer>
		<layer name="MobilenetV1/MobilenetV1/Conv2d_12_pointwise/Relu6" type="Clamp" precision="FP32" id="51">
			<data max="6.000000" min="0.000000"/>
			<input>
				<port id="0">
					<dim>1</dim>
					<dim>1024</dim>
					<dim>7</dim>
					<dim>7</dim>
				</port>
			</input>
			<output>
				<port id="1">
					<dim>1</dim>
					<dim>1024</dim>
					<dim>7</dim>
					<dim>7</dim>
				</port>
			</output>
		</layer>
		<layer name="MobilenetV1/MobilenetV1/Conv2d_13_depthwise/depthwise" type="Convolution" precision="FP32" id="52">
			<data auto_pad="same_upper" dilations="1,1" group="1024" kernel="3,3" output="1024" pads_begin="1,1" pads_end="1,1" quantization_level="I8" strides="1,1"/>
			<input>
				<port id="0">
					<dim>1</dim>
					<dim>1024</dim>
					<dim>7</dim>
					<dim>7</dim>
				</port>
			</input>
			<output>
				<port id="1">
					<dim>1</dim>
					<dim>1024</dim>
					<dim>7</dim>
					<dim>7</dim>
				</port>
			</output>
			<blobs>
				<biases offset="8544792" size="4096"/>
				<weights offset="8548888" size="36864"/>
			</blobs>
		</layer>
		<layer name="MobilenetV1/MobilenetV1/Conv2d_13_depthwise/Relu6" type="Clamp" precision="FP32" id="53">
			<data max="6.000000" min="0.000000"/>
			<input>
				<port id="0">
					<dim>1</dim>
					<dim>1024</dim>
					<dim>7</dim>
					<dim>7</dim>
				</port>
			</input>
			<output>
				<port id="1">
					<dim>1</dim>
					<dim>1024</dim>
					<dim>7</dim>
					<dim>7</dim>
				</port>
			</output>
		</layer>
		<layer name="MobilenetV1/MobilenetV1/Conv2d_13_pointwise/Conv2D" type="Convolution" precision="FP32" id="54">
			<data auto_pad="same_upper" dilations="1,1" group="1" kernel="1,1" output="1024" pads_begin="0,0" pads_end="0,0" quantization_level="I8" strides="1,1"/>
			<input>
				<port id="0">
					<dim>1</dim>
					<dim>1024</dim>
					<dim>7</dim>
					<dim>7</dim>
				</port>
			</input>
			<output>
				<port id="1">
					<dim>1</dim>
					<dim>1024</dim>
					<dim>7</dim>
					<dim>7</dim>
				</port>
			</output>
			<blobs>
				<biases offset="8585752" size="4096"/>
				<weights offset="8589848" size="4194304"/>
			</blobs>
		</layer>
		<layer name="MobilenetV1/MobilenetV1/Conv2d_13_pointwise/Relu6" type="Clamp" precision="FP32" id="55">
			<data max="6.000000" min="0.000000"/>
			<input>
				<port id="0">
					<dim>1</dim>
					<dim>1024</dim>
					<dim>7</dim>
					<dim>7</dim>
				</port>
			</input>
			<output>
				<port id="1">
					<dim>1</dim>
					<dim>1024</dim>
					<dim>7</dim>
					<dim>7</dim>
				</port>
			</output>
		</layer>
		<layer name="MobilenetV1/Logits/AvgPool_1a/AvgPool" type="Pooling" precision="FP32" id="56">
			<data auto_pad="valid" exclude-pad="true" kernel="7,7" pads_begin="0,0" pads_end="0,0" pool-method="avg" strides="2,2"/>
			<input>
				<port id="0">
					<dim>1</dim>
					<dim>1024</dim>
					<dim>7</dim>
					<dim>7</dim>
				</port>
			</input>
			<output>
				<port id="1">
					<dim>1</dim>
					<dim>1024</dim>
					<dim>1</dim>
					<dim>1</dim>
				</port>
			</output>
		</layer>
		<layer name="MobilenetV1/Logits/Conv2d_1c_1x1/Conv2D" type="Convolution" precision="FP32" id="57">
			<data auto_pad="same_upper" dilations="1,1" group="1" kernel="1,1" output="1001" pads_begin="0,0" pads_end="0,0" quantization_level="I8" strides="1,1"/>
			<input>
				<port id="0">
					<dim>1</dim>
					<dim>1024</dim>
					<dim>1</dim>
					<dim>1</dim>
				</port>
			</input>
			<output>
				<port id="1">
					<dim>1</dim>
					<dim>1001</dim>
					<dim>1</dim>
					<dim>1</dim>
				</port>
			</output>
			<blobs>
				<biases offset="12784152" size="4004"/>
				<weights offset="12788156" size="4100096"/>
			</blobs>
		</layer>
		<layer name="MobilenetV1/Logits/Conv2d_1c_1x1/Conv2D/Permute_" type="Permute" precision="FP32" id="58">
			<data order="0,2,3,1"/>
			<input>
				<port id="0">
					<dim>1</dim>
					<dim>1001</dim>
					<dim>1</dim>
					<dim>1</dim>
				</port>
			</input>
			<output>
				<port id="1">
					<dim>1</dim>
					<dim>1</dim>
					<dim>1</dim>
					<dim>1001</dim>
				</port>
			</output>
		</layer>
		<layer name="MobilenetV1/Logits/SpatialSqueeze" type="Reshape" precision="FP32" id="59">
			<data dim="0,-1"/>
			<input>
				<port id="0">
					<dim>1</dim>
					<dim>1</dim>
					<dim>1</dim>
					<dim>1001</dim>
				</port>
			</input>
			<output>
				<port id="1">
					<dim>1</dim>
					<dim>1001</dim>
				</port>
			</output>
		</layer>
	</layers>
	<edges>
		<edge from-layer="0" from-port="0" to-layer="1" to-port="0"/>
		<edge from-layer="1" from-port="1" to-layer="2" to-port="0"/>
		<edge from-layer="2" from-port="1" to-layer="3" to-port="0"/>
		<edge from-layer="3" from-port="1" to-layer="4" to-port="0"/>
		<edge from-layer="4" from-port="1" to-layer="5" to-port="0"/>
		<edge from-layer="5" from-port="1" to-layer="6" to-port="0"/>
		<edge from-layer="6" from-port="1" to-layer="7" to-port="0"/>
		<edge from-layer="7" from-port="1" to-layer="8" to-port="0"/>
		<edge from-layer="8" from-port="1" to-layer="9" to-port="0"/>
		<edge from-layer="9" from-port="1" to-layer="10" to-port="0"/>
		<edge from-layer="10" from-port="1" to-layer="11" to-port="0"/>
		<edge from-layer="11" from-port="1" to-layer="12" to-port="0"/>
		<edge from-layer="12" from-port="1" to-layer="13" to-port="0"/>
		<edge from-layer="13" from-port="1" to-layer="14" to-port="0"/>
		<edge from-layer="14" from-port="1" to-layer="15" to-port="0"/>
		<edge from-layer="15" from-port="1" to-layer="16" to-port="0"/>
		<edge from-layer="16" from-port="1" to-layer="17" to-port="0"/>
		<edge from-layer="17" from-port="1" to-layer="18" to-port="0"/>
		<edge from-layer="18" from-port="1" to-layer="19" to-port="0"/>
		<edge from-layer="19" from-port="1" to-layer="20" to-port="0"/>
		<edge from-layer="20" from-port="1" to-layer="21" to-port="0"/>
		<edge from-layer="21" from-port="1" to-layer="22" to-port="0"/>
		<edge from-layer="22" from-port="1" to-layer="23" to-port="0"/>
		<edge from-layer="23" from-port="1" to-layer="24" to-port="0"/>
		<edge from-layer="24" from-port="1" to-layer="25" to-port="0"/>
		<edge from-layer="25" from-port="1" to-layer="26" to-port="0"/>
		<edge from-layer="26" from-port="1" to-layer="27" to-port="0"/>
		<edge from-layer="27" from-port="1" to-layer="28" to-port="0"/>
		<edge from-layer="28" from-port="1" to-layer="29" to-port="0"/>
		<edge from-layer="29" from-port="1" to-layer="30" to-port="0"/>
		<edge from-layer="30" from-port="1" to-layer="31" to-port="0"/>
		<edge from-layer="31" from-port="1" to-layer="32" to-port="0"/>
		<edge from-layer="32" from-port="1" to-layer="33" to-port="0"/>
		<edge from-layer="33" from-port="1" to-layer="34" to-port="0"/>
		<edge from-layer="34" from-port="1" to-layer="35" to-port="0"/>
		<edge from-layer="35" from-port="1" to-layer="36" to-port="0"/>
		<edge from-layer="36" from-port="1" to-layer="37" to-port="0"/>
		<edge from-layer="37" from-port="1" to-layer="38" to-port="0"/>
		<edge from-layer="38" from-port="1" to-layer="39" to-port="0"/>
		<edge from-layer="39" from-port="1" to-layer="40" to-port="0"/>
		<edge from-layer="40" from-port="1" to-layer="41" to-port="0"/>
		<edge from-layer="41" from-port="1" to-layer="42" to-port="0"/>
		<edge from-layer="42" from-port="1" to-layer="43" to-port="0"/>
		<edge from-layer="43" from-port="1" to-layer="44" to-port="0"/>
		<edge from-layer="44" from-port="1" to-layer="45" to-port="0"/>
		<edge from-layer="45" from-port="1" to-layer="46" to-port="0"/>
		<edge from-layer="46" from-port="1" to-layer="47" to-port="0"/>
		<edge from-layer="47" from-port="1" to-layer="48" to-port="0"/>
		<edge from-layer="48" from-port="1" to-layer="49" to-port="0"/>
		<edge from-layer="49" from-port="1" to-layer="50" to-port="0"/>
		<edge from-layer="50" from-port="1" to-layer="51" to-port="0"/>
		<edge from-layer="51" from-port="1" to-layer="52" to-port="0"/>
		<edge from-layer="52" from-port="1" to-layer="53" to-port="0"/>
		<edge from-layer="53" from-port="1" to-layer="54" to-port="0"/>
		<edge from-layer="54" from-port="1" to-layer="55" to-port="0"/>
		<edge from-layer="55" from-port="1" to-layer="56" to-port="0"/>
		<edge from-layer="56" from-port="1" to-layer="57" to-port="0"/>
		<edge from-layer="57" from-port="1" to-layer="58" to-port="0"/>
		<edge from-layer="58" from-port="1" to-layer="59" to-port="0"/>
	</edges>
	<statistics>
		<layer>
			<name>MobilenetV1/Logits/AvgPool_1a/AvgPool</name>
			<min>… 0.000000</min>
			<max>… 3.256440</max>
		</layer>
		<layer>
			<name>MobilenetV1/Logits/Conv2d_1c_1x1/Conv2D</name>
			<min>… -3.930316</min>
			<max>… 9.839224</max>
		</layer>
		<layer>
			<name>MobilenetV1/Logits/Conv2d_1c_1x1/Conv2D/Permute_</name>
			<min>-11.972521</min>
			<max>29.498335</max>
		</layer>
		<layer>
			<name>MobilenetV1/Logits/SpatialSqueeze</name>
			<min>-11.972521</min>
			<max>29.498335</max>
		</layer>
		<layer>
			<name>MobilenetV1/MobilenetV1/Conv2d_0/Conv2D</name>
			<min>… 1.480404</min>
			<max>… 5.427545</max>
		</layer>
		<layer>
			<name>MobilenetV1/MobilenetV1/Conv2d_0/Relu6</name>
			<min>… 1.480404</min>
			<max>… 5.427545</max>
		</layer>
		<layer>
			<name>MobilenetV1/MobilenetV1/Conv2d_10_depthwise/Relu6</name>
			<min>… 0.000000</min>
			<max>… 6.000000</max>
		</layer>
		<layer>
			<name>MobilenetV1/MobilenetV1/Conv2d_10_depthwise/depthwise</name>
			<min>… -1.987855</min>
			<max>… 6.596034</max>
		</layer>
		<layer>
			<name>MobilenetV1/MobilenetV1/Conv2d_10_pointwise/Conv2D</name>
			<min>… -4.576931</min>
			<max>… 5.209888</max>
		</layer>
		<layer>
			<name>MobilenetV1/MobilenetV1/Conv2d_10_pointwise/Relu6</name>
			<min>… 0.000000</min>
			<max>… 5.209888</max>
		</layer>
		<layer>
			<name>MobilenetV1/MobilenetV1/Conv2d_11_depthwise/Relu6</name>
			<min>… 0.000000</min>
			<max>… 6.000000</max>
		</layer>
		<layer>
			<name>MobilenetV1/MobilenetV1/Conv2d_11_depthwise/depthwise</name>
			<min>… -0.428597</min>
			<max>… 6.501064</max>
		</layer>
		<layer>
			<name>MobilenetV1/MobilenetV1/Conv2d_11_pointwise/Conv2D</name>
			<min>… -4.896104</min>
			<max>… 4.020374</max>
		</layer>
		<layer>
			<name>MobilenetV1/MobilenetV1/Conv2d_11_pointwise/Relu6</name>
			<min>… 0.000000</min>
			<max>… 4.020374</max>
		</layer>
		<layer>
			<name>MobilenetV1/MobilenetV1/Conv2d_12_depthwise/Relu6</name>
			<min>… 0.000000</min>
			<max>… 4.447158</max>
		</layer>
		<layer>
			<name>MobilenetV1/MobilenetV1/Conv2d_12_depthwise/depthwise</name>
			<min>… -0.013386</min>
			<max>… 4.447158</max>
		</layer>
		<layer>
			<name>MobilenetV1/MobilenetV1/Conv2d_12_pointwise/Conv2D</name>
			<min>… -0.918497</min>
			<max>… 5.314034</max>
		</layer>
		<layer>
			<name>MobilenetV1/MobilenetV1/Conv2d_12_pointwise/Relu6</name>
			<min>… 0.000000</min>
			<max>… 5.314034</max>
		</layer>
		<layer>
			<name>MobilenetV1/MobilenetV1/Conv2d_13_depthwise/Relu6</name>
			<min>… 0.000000</min>
			<max>… 1.983181</max>
		</layer>
		<layer>
			<name>MobilenetV1/MobilenetV1/Conv2d_13_depthwise/depthwise</name>
			<min>… -8.991049</min>
			<max>… 1.983181</max>
		</layer>
		<layer>
			<name>MobilenetV1/MobilenetV1/Conv2d_13_pointwise/Conv2D</name>
			<min>… -18.267559</min>
			<max>… 15.387728</max>
		</layer>
		<layer>
			<name>MobilenetV1/MobilenetV1/Conv2d_13_pointwise/Relu6</name>
			<min>… 0.000000</min>
			<max>… 6.000000</max>
		</layer>
		<layer>
			<name>MobilenetV1/MobilenetV1/Conv2d_1_depthwise/Relu6</name>
			<min>… 0.000000</min>
			<max>… 6.000000</max>
		</layer>
		<layer>
			<name>MobilenetV1/MobilenetV1/Conv2d_1_depthwise/depthwise</name>
			<min>… -20.898951</min>
			<max>… 22.315596</max>
		</layer>
		<layer>
			<name>MobilenetV1/MobilenetV1/Conv2d_1_pointwise/Conv2D</name>
			<min>… -11.024096</min>
			<max>… 6.194290</max>
		</layer>
		<layer>
			<name>MobilenetV1/MobilenetV1/Conv2d_1_pointwise/Relu6</name>
			<min>… 0.000000</min>
			<max>… 6.000000</max>
		</layer>
		<layer>
			<name>MobilenetV1/MobilenetV1/Conv2d_2_depthwise/Relu6</name>
			<min>… 0.146173</min>
			<max>… 6.000000</max>
		</layer>
		<layer>
			<name>MobilenetV1/MobilenetV1/Conv2d_2_depthwise/depthwise</name>
			<min>… 0.146173</min>
			<max>… 7.522316</max>
		</layer>
		<layer>
			<name>MobilenetV1/MobilenetV1/Conv2d_2_pointwise/Conv2D</name>
			<min>… 0.135523</min>
			<max>… 4.222477</max>
		</layer>
		<layer>
			<name>MobilenetV1/MobilenetV1/Conv2d_2_pointwise/Relu6</name>
			<min>… 0.135523</min>
			<max>… 4.222477</max>
		</layer>
		<layer>
			<name>MobilenetV1/MobilenetV1/Conv2d_3_depthwise/Relu6</name>
			<min>… 0.000000</min>
			<max>… 6.000000</max>
		</layer>
		<layer>
			<name>MobilenetV1/MobilenetV1/Conv2d_3_depthwise/depthwise</name>
			<min>… -11.197194</min>
			<max>… 11.490941</max>
		</layer>
		<layer>
			<name>MobilenetV1/MobilenetV1/Conv2d_3_pointwise/Conv2D</name>
			<min>… -9.217539</min>
			<max>… 6.845726</max>
		</layer>
		<layer>
			<name>MobilenetV1/MobilenetV1/Conv2d_3_pointwise/Relu6</name>
			<min>… 0.000000</min>
			<max>… 6.000000</max>
		</layer>
		<layer>
			<name>MobilenetV1/MobilenetV1/Conv2d_4_depthwise/Relu6</name>
			<min>… 0.000000</min>
			<max>… 5.482864</max>
		</layer>
		<layer>
			<name>MobilenetV1/MobilenetV1/Conv2d_4_depthwise/depthwise</name>
			<min>… -2.434608</min>
			<max>… 5.482864</max>
		</layer>
		<layer>
			<name>MobilenetV1/MobilenetV1/Conv2d_4_pointwise/Conv2D</name>
			<min>… -0.535273</min>
			<max>… 2.762410</max>
		</layer>
		<layer>
			<name>MobilenetV1/MobilenetV1/Conv2d_4_pointwise/Relu6</name>
			<min>… 0.000000</min>
			<max>… 2.762410</max>
		</layer>
		<layer>
			<name>MobilenetV1/MobilenetV1/Conv2d_5_depthwise/Relu6</name>
			<min>… 0.000000</min>
			<max>… 4.239300</max>
		</layer>
		<layer>
			<name>MobilenetV1/MobilenetV1/Conv2d_5_depthwise/depthwise</name>
			<min>… -2.303840</min>
			<max>… 4.239300</max>
		</layer>
		<layer>
			<name>MobilenetV1/MobilenetV1/Conv2d_5_pointwise/Conv2D</name>
			<min>… -6.846687</min>
			<max>… 5.428333</max>
		</layer>
		<layer>
			<name>MobilenetV1/MobilenetV1/Conv2d_5_pointwise/Relu6</name>
			<min>… 0.000000</min>
			<max>… 5.428333</max>
		</layer>
		<layer>
			<name>MobilenetV1/MobilenetV1/Conv2d_6_depthwise/Relu6</name>
			<min>… 0.592738</min>
			<max>… 5.500653</max>
		</layer>
		<layer>
			<name>MobilenetV1/MobilenetV1/Conv2d_6_depthwise/depthwise</name>
			<min>… 0.592738</min>
			<max>… 5.500653</max>
		</layer>
		<layer>
			<name>MobilenetV1/MobilenetV1/Conv2d_6_pointwise/Conv2D</name>
			<min>… -1.642090</min>
			<max>… 3.576031</max>
		</layer>
		<layer>
			<name>MobilenetV1/MobilenetV1/Conv2d_6_pointwise/Relu6</name>
			<min>… 0.000000</min>
			<max>… 3.576031</max>
		</layer>
		<layer>
			<name>MobilenetV1/MobilenetV1/Conv2d_7_depthwise/Relu6</name>
			<min>… 0.000000</min>
			<max>… 4.852796</max>
		</layer>
		<layer>
			<name>MobilenetV1/MobilenetV1/Conv2d_7_depthwise/depthwise</name>
			<min>… -5.859152</min>
			<max>… 4.852796</max>
		</layer>
		<layer>
			<name>MobilenetV1/MobilenetV1/Conv2d_7_pointwise/Conv2D</name>
			<min>… -5.515276</min>
			<max>… 4.385672</max>
		</layer>
		<layer>
			<name>MobilenetV1/MobilenetV1/Conv2d_7_pointwise/Relu6</name>
			<min>… 0.000000</min>
			<max>… 4.385672</max>
		</layer>
		<layer>
			<name>MobilenetV1/MobilenetV1/Conv2d_8_depthwise/Relu6</name>
			<min>… 0.000000</min>
			<max>… 4.944027</max>
		</layer>
		<layer>
			<name>MobilenetV1/MobilenetV1/Conv2d_8_depthwise/depthwise</name>
			<min>… -1.097816</min>
			<max>… 4.944027</max>
		</layer>
		<layer>
			<name>MobilenetV1/MobilenetV1/Conv2d_8_pointwise/Conv2D</name>
			<min>… -3.045190</min>
			<max>… 5.666869</max>
		</layer>
		<layer>
			<name>MobilenetV1/MobilenetV1/Conv2d_8_pointwise/Relu6</name>
			<min>… 0.000000</min>
			<max>… 5.666869</max>
		</layer>
		<layer>
			<name>MobilenetV1/MobilenetV1/Conv2d_9_depthwise/Relu6</name>
			<min>… 0.000000</min>
			<max>… 6.000000</max>
		</layer>
		<layer>
			<name>MobilenetV1/MobilenetV1/Conv2d_9_depthwise/depthwise</name>
			<min>… -0.969420</min>
			<max>… 7.409470</max>
		</layer>
		<layer>
			<name>MobilenetV1/MobilenetV1/Conv2d_9_pointwise/Conv2D</name>
			<min>… -4.618564</min>
			<max>… 4.223705</max>
		</layer>
		<layer>
			<name>MobilenetV1/MobilenetV1/Conv2d_9_pointwise/Relu6</name>
			<min>… 0.000000</min>
			<max>… 4.223705</max>
		</layer>
		<layer>
			<name>Mul1_/Fused_Mul_/FusedScaleShift_</name>
			<min>-1.000000, -1.000000, -1.000000</min>
			<max>1.000000, 1.000000, 1.000000</max>
		</layer>
		<layer>
			<name>input</name>
			<min>0.000000, 0.000000, 0.000000</min>
			<max>255.000000, 255.000000, 255.000000</max>
		</layer>
		<layer>
			<name>scaleshifted_input:Mul1_/Fused_Mul_/FusedScaleShift_</name>
			<min/>
			<max/>
		</layer>
	</statistics>
</net>